…
I1216 05:00:13.203841  5773 net.cpp:294] The NetState phase (0) differed from the phase (1) specified by a rule in layer accuracy
I1216 05:00:13.203845  5773 net.cpp:51] Initializing net from parameters: 
name: "CaffeNet"
state {
  phase: TRAIN
  level: 0
  stage: ""
}
layer {
  name: "data"
  type: "Data"
  top: "data"
  top: "label"
  include {
    phase: TRAIN
  }
  transform_param {
    mirror: true
    crop_size: 277
    mean_file: "/home/nicholas/tesi/input/mean.binaryproto"
  }
  data_param {
    source: "/home/nicholas/tesi/input/train_lmdb"
    batch_size: 10
    backend: LMDB
  }
}
layer {
  name: "conv1"
  type: "Convolution"
  bottom: "data"
  top: "conv1"
  param {
    lr_mult: 1
    decay_mult: 1
  }
  param {
    lr_mult: 2
    decay_mult: 0
  }
  convolution_param {
    num_output: 96
    kernel_size: 11
    stride: 4
    weight_filler {
      type: "gaussian"
      std: 0.01
    }
    bias_filler {
      type: "constant"
      value: 0
    }
  }
}
layer {
  name: "relu1"
  type: "ReLU"
  bottom: "conv1"
  top: "conv1"
}
layer {
  name: "pool1"
  type: "Pooling"
  bottom: "conv1"
  top: "pool1"
  pooling_param {
    pool: MAX
    kernel_size: 3
    stride: 2
  }
}
layer {
  name: "norm1"
  type: "LRN"
  bottom: "pool1"
  top: "norm1"
  lrn_param {
    local_size: 5
    alpha: 0.0001
    beta: 0.75
  }
}
layer {
  name: "conv2"
  type: "Convolution"
  bottom: "norm1"
  top: "conv2"
  param {
    lr_mult: 1
    decay_mult: 1
  }
  param {
    lr_mult: 2
    decay_mult: 0
  }
  convolution_param {
    num_output: 256
    pad: 2
    kernel_size: 5
    group: 2
    weight_filler {
      type: "gaussian"
      std: 0.01
    }
    bias_filler {
      type: "constant"
      value: 1
    }
  }
}
layer {
  name: "relu2"
  type: "ReLU"
  bottom: "conv2"
  top: "conv2"
}
layer {
  name: "pool2"
  type: "Pooling"
  bottom: "conv2"
  top: "pool2"
  pooling_param {
    pool: MAX
    kernel_size: 3
    stride: 2
  }
}
layer {
  name: "norm2"
  type: "LRN"
  bottom: "pool2"
  top: "norm2"
  lrn_param {
    local_size: 5
    alpha: 0.0001
    beta: 0.75
  }
}
layer {
  name: "conv3"
  type: "Convolution"
  bottom: "norm2"
  top: "conv3"
  param {
    lr_mult: 1
    decay_mult: 1
  }
  param {
    lr_mult: 2
    decay_mult: 0
  }
  convolution_param {
    num_output: 384
    pad: 1
    kernel_size: 3
    weight_filler {
      type: "gaussian"
      std: 0.01
    }
    bias_filler {
      type: "constant"
      value: 0
    }
  }
}
layer {
  name: "relu3"
  type: "ReLU"
  bottom: "conv3"
  top: "conv3"
}
layer {
  name: "conv4"
  type: "Convolution"
  bottom: "conv3"
  top: "conv4"
  param {
    lr_mult: 1
    decay_mult: 1
  }
  param {
    lr_mult: 2
    decay_mult: 0
  }
  convolution_param {
    num_output: 384
    pad: 1
    kernel_size: 3
    group: 2
    weight_filler {
      type: "gaussian"
      std: 0.01
    }
    bias_filler {
      type: "constant"
      value: 1
    }
  }
}
layer {
  name: "relu4"
  type: "ReLU"
  bottom: "conv4"
  top: "conv4"
}
layer {
  name: "conv5"
  type: "Convolution"
  bottom: "conv4"
  top: "conv5"
  param {
    lr_mult: 1
    decay_mult: 1
  }
  param {
    lr_mult: 2
    decay_mult: 0
  }
  convolution_param {
    num_output: 256
    pad: 1
    kernel_size: 3
    group: 2
    weight_filler {
      type: "gaussian"
      std: 0.01
    }
    bias_filler {
      type: "constant"
      value: 1
    }
  }
}
layer {
  name: "relu5"
  type: "ReLU"
  bottom: "conv5"
  top: "conv5"
}
layer {
  name: "pool5"
  type: "Pooling"
  bottom: "conv5"
  top: "pool5"
  pooling_param {
    pool: MAX
    kernel_size: 3
    stride: 2
  }
}
layer {
  name: "fc6"
  type: "InnerProduct"
  bottom: "pool5"
  top: "fc6"
  param {
    lr_mult: 1
    decay_mult: 1
  }
  param {
    lr_mult: 2
    decay_mult: 0
  }
  inner_product_param {
    num_output: 4096
    weight_filler {
      type: "gaussian"
      std: 0.005
    }
    bias_filler {
      type: "constant"
      value: 1
    }
  }
}
layer {
  name: "relu6"
  type: "ReLU"
  bottom: "fc6"
  top: "fc6"
}
layer {
  name: "drop6"
  type: "Dropout"
  bottom: "fc6"
  top: "fc6"
  dropout_param {
    dropout_ratio: 0.5
  }
}
layer {
  name: "fc7"
  type: "InnerProduct"
  bottom: "fc6"
  top: "fc7"
  param {
    lr_mult: 1
    decay_mult: 1
  }
  param {
    lr_mult: 2
    decay_mult: 0
  }
  inner_product_param {
    num_output: 4096
    weight_filler {
      type: "gaussian"
      std: 0.005
    }
    bias_filler {
      type: "constant"
      value: 1
    }
  }
}
layer {
  name: "relu7"
  type: "ReLU"
  bottom: "fc7"
  top: "fc7"
}
layer {
  name: "drop7"
  type: "Dropout"
  bottom: "fc7"
  top: "fc7"
  dropout_param {
    dropout_ratio: 0.5
  }
}
layer {
  name: "fc8"
  type: "InnerProduct"
  bottom: "fc7"
  top: "fc8"
  param {
    lr_mult: 1
    decay_mult: 1
  }
  param {
    lr_mult: 2
    decay_mult: 0
  }
  inner_product_param {
    num_output: 2
    weight_filler {
      type: "gaussian"
      std: 0.01
    }
    bias_filler {
      type: "constant"
      value: 0
    }
  }
}
layer {
  name: "loss"
  type: "SoftmaxWithLoss"
  bottom: "fc8"
  bottom: "label"
  top: "loss"
}
I1216 05:00:13.204615  5773 layer_factory.hpp:77] Creating layer data
I1216 05:00:13.204665  5773 db_lmdb.cpp:35] Opened lmdb /home/nicholas/tesi/input/train_lmdb
I1216 05:00:13.204675  5773 net.cpp:84] Creating Layer data
I1216 05:00:13.204679  5773 net.cpp:380] data -> data
I1216 05:00:13.204685  5773 net.cpp:380] data -> label
I1216 05:00:13.204689  5773 data_transformer.cpp:25] Loading mean file from: /home/nicholas/tesi/input/mean.binaryproto
I1216 05:00:13.207221  5773 data_layer.cpp:45] output data size: 10,3,277,277
I1216 05:00:13.219699  5773 net.cpp:122] Setting up data
I1216 05:00:13.219713  5773 net.cpp:129] Top shape: 10 3 277 277 (2301870)
I1216 05:00:13.219718  5773 net.cpp:129] Top shape: 10 (10)
I1216 05:00:13.219722  5773 net.cpp:137] Memory required for data: 9207520
I1216 05:00:13.219724  5773 layer_factory.hpp:77] Creating layer conv1
I1216 05:00:13.219734  5773 net.cpp:84] Creating Layer conv1
I1216 05:00:13.219736  5773 net.cpp:406] conv1 <- data
I1216 05:00:13.219741  5773 net.cpp:380] conv1 -> conv1
I1216 05:00:13.221078  5773 net.cpp:122] Setting up conv1
I1216 05:00:13.221086  5773 net.cpp:129] Top shape: 10 96 67 67 (4309440)
I1216 05:00:13.221091  5773 net.cpp:137] Memory required for data: 26445280
I1216 05:00:13.221096  5773 layer_factory.hpp:77] Creating layer relu1
I1216 05:00:13.221102  5773 net.cpp:84] Creating Layer relu1
I1216 05:00:13.221104  5773 net.cpp:406] relu1 <- conv1
I1216 05:00:13.221107  5773 net.cpp:367] relu1 -> conv1 (in-place)
I1216 05:00:13.221112  5773 net.cpp:122] Setting up relu1
I1216 05:00:13.221113  5773 net.cpp:129] Top shape: 10 96 67 67 (4309440)
I1216 05:00:13.221115  5773 net.cpp:137] Memory required for data: 43683040
I1216 05:00:13.221117  5773 layer_factory.hpp:77] Creating layer pool1
I1216 05:00:13.221122  5773 net.cpp:84] Creating Layer pool1
I1216 05:00:13.221123  5773 net.cpp:406] pool1 <- conv1
I1216 05:00:13.221125  5773 net.cpp:380] pool1 -> pool1
I1216 05:00:13.221861  5773 net.cpp:122] Setting up pool1
I1216 05:00:13.221865  5773 net.cpp:129] Top shape: 10 96 33 33 (1045440)
I1216 05:00:13.221868  5773 net.cpp:137] Memory required for data: 47864800
I1216 05:00:13.221879  5773 layer_factory.hpp:77] Creating layer norm1
I1216 05:00:13.221882  5773 net.cpp:84] Creating Layer norm1
I1216 05:00:13.221916  5773 net.cpp:406] norm1 <- pool1
I1216 05:00:13.221920  5773 net.cpp:380] norm1 -> norm1
I1216 05:00:13.221952  5773 net.cpp:122] Setting up norm1
I1216 05:00:13.221954  5773 net.cpp:129] Top shape: 10 96 33 33 (1045440)
I1216 05:00:13.221957  5773 net.cpp:137] Memory required for data: 52046560
I1216 05:00:13.221967  5773 layer_factory.hpp:77] Creating layer conv2
I1216 05:00:13.221972  5773 net.cpp:84] Creating Layer conv2
I1216 05:00:13.221974  5773 net.cpp:406] conv2 <- norm1
I1216 05:00:13.221976  5773 net.cpp:380] conv2 -> conv2
I1216 05:00:13.226155  5773 net.cpp:122] Setting up conv2
I1216 05:00:13.226167  5773 net.cpp:129] Top shape: 10 256 33 33 (2787840)
I1216 05:00:13.226181  5773 net.cpp:137] Memory required for data: 63197920
I1216 05:00:13.226187  5773 layer_factory.hpp:77] Creating layer relu2
I1216 05:00:13.226192  5773 net.cpp:84] Creating Layer relu2
I1216 05:00:13.226196  5773 net.cpp:406] relu2 <- conv2
I1216 05:00:13.226198  5773 net.cpp:367] relu2 -> conv2 (in-place)
I1216 05:00:13.226212  5773 net.cpp:122] Setting up relu2
I1216 05:00:13.226213  5773 net.cpp:129] Top shape: 10 256 33 33 (2787840)
I1216 05:00:13.226217  5773 net.cpp:137] Memory required for data: 74349280
I1216 05:00:13.226217  5773 layer_factory.hpp:77] Creating layer pool2
I1216 05:00:13.226220  5773 net.cpp:84] Creating Layer pool2
I1216 05:00:13.226222  5773 net.cpp:406] pool2 <- conv2
I1216 05:00:13.226224  5773 net.cpp:380] pool2 -> pool2
I1216 05:00:13.226250  5773 net.cpp:122] Setting up pool2
I1216 05:00:13.226265  5773 net.cpp:129] Top shape: 10 256 16 16 (655360)
I1216 05:00:13.226269  5773 net.cpp:137] Memory required for data: 76970720
I1216 05:00:13.226269  5773 layer_factory.hpp:77] Creating layer norm2
I1216 05:00:13.226274  5773 net.cpp:84] Creating Layer norm2
I1216 05:00:13.226289  5773 net.cpp:406] norm2 <- pool2
I1216 05:00:13.226290  5773 net.cpp:380] norm2 -> norm2
I1216 05:00:13.227072  5773 net.cpp:122] Setting up norm2
I1216 05:00:13.227078  5773 net.cpp:129] Top shape: 10 256 16 16 (655360)
I1216 05:00:13.227092  5773 net.cpp:137] Memory required for data: 79592160
I1216 05:00:13.227093  5773 layer_factory.hpp:77] Creating layer conv3
I1216 05:00:13.227099  5773 net.cpp:84] Creating Layer conv3
I1216 05:00:13.227102  5773 net.cpp:406] conv3 <- norm2
I1216 05:00:13.227115  5773 net.cpp:380] conv3 -> conv3
I1216 05:00:13.237922  5773 net.cpp:122] Setting up conv3
I1216 05:00:13.237934  5773 net.cpp:129] Top shape: 10 384 16 16 (983040)
I1216 05:00:13.237949  5773 net.cpp:137] Memory required for data: 83524320
I1216 05:00:13.237956  5773 layer_factory.hpp:77] Creating layer relu3
I1216 05:00:13.237962  5773 net.cpp:84] Creating Layer relu3
I1216 05:00:13.237963  5773 net.cpp:406] relu3 <- conv3
I1216 05:00:13.237977  5773 net.cpp:367] relu3 -> conv3 (in-place)
I1216 05:00:13.237980  5773 net.cpp:122] Setting up relu3
I1216 05:00:13.237982  5773 net.cpp:129] Top shape: 10 384 16 16 (983040)
I1216 05:00:13.237984  5773 net.cpp:137] Memory required for data: 87456480
I1216 05:00:13.237987  5773 layer_factory.hpp:77] Creating layer conv4
I1216 05:00:13.237992  5773 net.cpp:84] Creating Layer conv4
I1216 05:00:13.238008  5773 net.cpp:406] conv4 <- conv3
I1216 05:00:13.238013  5773 net.cpp:380] conv4 -> conv4
I1216 05:00:13.245692  5773 net.cpp:122] Setting up conv4
I1216 05:00:13.245707  5773 net.cpp:129] Top shape: 10 384 16 16 (983040)
I1216 05:00:13.245712  5773 net.cpp:137] Memory required for data: 91388640
I1216 05:00:13.245717  5773 layer_factory.hpp:77] Creating layer relu4
I1216 05:00:13.245720  5773 net.cpp:84] Creating Layer relu4
I1216 05:00:13.245723  5773 net.cpp:406] relu4 <- conv4
I1216 05:00:13.245726  5773 net.cpp:367] relu4 -> conv4 (in-place)
I1216 05:00:13.245730  5773 net.cpp:122] Setting up relu4
I1216 05:00:13.245731  5773 net.cpp:129] Top shape: 10 384 16 16 (983040)
I1216 05:00:13.245733  5773 net.cpp:137] Memory required for data: 95320800
I1216 05:00:13.245745  5773 layer_factory.hpp:77] Creating layer conv5
I1216 05:00:13.245749  5773 net.cpp:84] Creating Layer conv5
I1216 05:00:13.245775  5773 net.cpp:406] conv5 <- conv4
I1216 05:00:13.245779  5773 net.cpp:380] conv5 -> conv5
I1216 05:00:13.251149  5773 net.cpp:122] Setting up conv5
I1216 05:00:13.251157  5773 net.cpp:129] Top shape: 10 256 16 16 (655360)
I1216 05:00:13.251161  5773 net.cpp:137] Memory required for data: 97942240
I1216 05:00:13.251166  5773 layer_factory.hpp:77] Creating layer relu5
I1216 05:00:13.251170  5773 net.cpp:84] Creating Layer relu5
I1216 05:00:13.251173  5773 net.cpp:406] relu5 <- conv5
I1216 05:00:13.251175  5773 net.cpp:367] relu5 -> conv5 (in-place)
I1216 05:00:13.251178  5773 net.cpp:122] Setting up relu5
I1216 05:00:13.251179  5773 net.cpp:129] Top shape: 10 256 16 16 (655360)
I1216 05:00:13.251191  5773 net.cpp:137] Memory required for data: 100563680
I1216 05:00:13.251194  5773 layer_factory.hpp:77] Creating layer pool5
I1216 05:00:13.251196  5773 net.cpp:84] Creating Layer pool5
I1216 05:00:13.251199  5773 net.cpp:406] pool5 <- conv5
I1216 05:00:13.251200  5773 net.cpp:380] pool5 -> pool5
I1216 05:00:13.251240  5773 net.cpp:122] Setting up pool5
I1216 05:00:13.251242  5773 net.cpp:129] Top shape: 10 256 8 8 (163840)
I1216 05:00:13.251245  5773 net.cpp:137] Memory required for data: 101219040
I1216 05:00:13.251246  5773 layer_factory.hpp:77] Creating layer fc6
I1216 05:00:13.251261  5773 net.cpp:84] Creating Layer fc6
I1216 05:00:13.251262  5773 net.cpp:406] fc6 <- pool5
I1216 05:00:13.251266  5773 net.cpp:380] fc6 -> fc6
I1216 05:00:13.993219  5773 net.cpp:122] Setting up fc6
I1216 05:00:13.993234  5773 net.cpp:129] Top shape: 10 4096 (40960)
I1216 05:00:13.993239  5773 net.cpp:137] Memory required for data: 101382880
I1216 05:00:13.993243  5773 layer_factory.hpp:77] Creating layer relu6
I1216 05:00:13.993248  5773 net.cpp:84] Creating Layer relu6
I1216 05:00:13.993252  5773 net.cpp:406] relu6 <- fc6
I1216 05:00:13.993255  5773 net.cpp:367] relu6 -> fc6 (in-place)
I1216 05:00:13.993259  5773 net.cpp:122] Setting up relu6
I1216 05:00:13.993270  5773 net.cpp:129] Top shape: 10 4096 (40960)
I1216 05:00:13.993273  5773 net.cpp:137] Memory required for data: 101546720
I1216 05:00:13.993273  5773 layer_factory.hpp:77] Creating layer drop6
I1216 05:00:13.993278  5773 net.cpp:84] Creating Layer drop6
I1216 05:00:13.993278  5773 net.cpp:406] drop6 <- fc6
I1216 05:00:13.993280  5773 net.cpp:367] drop6 -> fc6 (in-place)
I1216 05:00:13.993305  5773 net.cpp:122] Setting up drop6
I1216 05:00:13.993307  5773 net.cpp:129] Top shape: 10 4096 (40960)
I1216 05:00:13.993309  5773 net.cpp:137] Memory required for data: 101710560
I1216 05:00:13.993311  5773 layer_factory.hpp:77] Creating layer fc7
I1216 05:00:13.993315  5773 net.cpp:84] Creating Layer fc7
I1216 05:00:13.993319  5773 net.cpp:406] fc7 <- fc6
I1216 05:00:13.993321  5773 net.cpp:380] fc7 -> fc7
I1216 05:00:14.179774  5773 net.cpp:122] Setting up fc7
I1216 05:00:14.179790  5773 net.cpp:129] Top shape: 10 4096 (40960)
I1216 05:00:14.179795  5773 net.cpp:137] Memory required for data: 101874400
I1216 05:00:14.179800  5773 layer_factory.hpp:77] Creating layer relu7
I1216 05:00:14.179806  5773 net.cpp:84] Creating Layer relu7
I1216 05:00:14.179810  5773 net.cpp:406] relu7 <- fc7
I1216 05:00:14.179813  5773 net.cpp:367] relu7 -> fc7 (in-place)
I1216 05:00:14.179817  5773 net.cpp:122] Setting up relu7
I1216 05:00:14.179829  5773 net.cpp:129] Top shape: 10 4096 (40960)
I1216 05:00:14.179831  5773 net.cpp:137] Memory required for data: 102038240
I1216 05:00:14.179833  5773 layer_factory.hpp:77] Creating layer drop7
I1216 05:00:14.179836  5773 net.cpp:84] Creating Layer drop7
I1216 05:00:14.179838  5773 net.cpp:406] drop7 <- fc7
I1216 05:00:14.179841  5773 net.cpp:367] drop7 -> fc7 (in-place)
I1216 05:00:14.179870  5773 net.cpp:122] Setting up drop7
I1216 05:00:14.179873  5773 net.cpp:129] Top shape: 10 4096 (40960)
I1216 05:00:14.179875  5773 net.cpp:137] Memory required for data: 102202080
I1216 05:00:14.179877  5773 layer_factory.hpp:77] Creating layer fc8
I1216 05:00:14.179890  5773 net.cpp:84] Creating Layer fc8
I1216 05:00:14.179893  5773 net.cpp:406] fc8 <- fc7
I1216 05:00:14.179919  5773 net.cpp:380] fc8 -> fc8
I1216 05:00:14.180121  5773 net.cpp:122] Setting up fc8
I1216 05:00:14.180124  5773 net.cpp:129] Top shape: 10 2 (20)
I1216 05:00:14.180126  5773 net.cpp:137] Memory required for data: 102202160
I1216 05:00:14.180130  5773 layer_factory.hpp:77] Creating layer loss
I1216 05:00:14.180685  5773 net.cpp:84] Creating Layer loss
I1216 05:00:14.180691  5773 net.cpp:406] loss <- fc8
I1216 05:00:14.180694  5773 net.cpp:406] loss <- label
I1216 05:00:14.180706  5773 net.cpp:380] loss -> loss
I1216 05:00:14.180714  5773 layer_factory.hpp:77] Creating layer loss
…
I1216 05:00:14.181215  5773 net.cpp:294] The NetState phase (1) differed from the phase (0) specified by a rule in layer data
I1216 05:00:14.181224  5773 net.cpp:51] Initializing net from parameters: 
name: "CaffeNet"
state {
  phase: TEST
}
layer {
  name: "data"
  type: "Data"
  top: "data"
  top: "label"
  include {
    phase: TEST
  }
  transform_param {
    mirror: false
    crop_size: 277
    mean_file: "/home/nicholas/tesi/input/mean.binaryproto"
  }
  data_param {
    source: "/home/nicholas/tesi/input/validation_lmdb"
    batch_size: 10
    backend: LMDB
  }
}
layer {
  name: "conv1"
  type: "Convolution"
  bottom: "data"
  top: "conv1"
  param {
    lr_mult: 1
    decay_mult: 1
  }
  param {
    lr_mult: 2
    decay_mult: 0
  }
  convolution_param {
    num_output: 96
    kernel_size: 11
    stride: 4
    weight_filler {
      type: "gaussian"
      std: 0.01
    }
    bias_filler {
      type: "constant"
      value: 0
    }
  }
}
layer {
  name: "relu1"
  type: "ReLU"
  bottom: "conv1"
  top: "conv1"
}
layer {
  name: "pool1"
  type: "Pooling"
  bottom: "conv1"
  top: "pool1"
  pooling_param {
    pool: MAX
    kernel_size: 3
    stride: 2
  }
}
layer {
  name: "norm1"
  type: "LRN"
  bottom: "pool1"
  top: "norm1"
  lrn_param {
    local_size: 5
    alpha: 0.0001
    beta: 0.75
  }
}
layer {
  name: "conv2"
  type: "Convolution"
  bottom: "norm1"
  top: "conv2"
  param {
    lr_mult: 1
    decay_mult: 1
  }
  param {
    lr_mult: 2
    decay_mult: 0
  }
  convolution_param {
    num_output: 256
    pad: 2
    kernel_size: 5
    group: 2
    weight_filler {
      type: "gaussian"
      std: 0.01
    }
    bias_filler {
      type: "constant"
      value: 1
    }
  }
}
layer {
  name: "relu2"
  type: "ReLU"
  bottom: "conv2"
  top: "conv2"
}
layer {
  name: "pool2"
  type: "Pooling"
  bottom: "conv2"
  top: "pool2"
  pooling_param {
    pool: MAX
    kernel_size: 3
    stride: 2
  }
}
layer {
  name: "norm2"
  type: "LRN"
  bottom: "pool2"
  top: "norm2"
  lrn_param {
    local_size: 5
    alpha: 0.0001
    beta: 0.75
  }
}
layer {
  name: "conv3"
  type: "Convolution"
  bottom: "norm2"
  top: "conv3"
  param {
    lr_mult: 1
    decay_mult: 1
  }
  param {
    lr_mult: 2
    decay_mult: 0
  }
  convolution_param {
    num_output: 384
    pad: 1
    kernel_size: 3
    weight_filler {
      type: "gaussian"
      std: 0.01
    }
    bias_filler {
      type: "constant"
      value: 0
    }
  }
}
layer {
  name: "relu3"
  type: "ReLU"
  bottom: "conv3"
  top: "conv3"
}
layer {
  name: "conv4"
  type: "Convolution"
  bottom: "conv3"
  top: "conv4"
  param {
    lr_mult: 1
    decay_mult: 1
  }
  param {
    lr_mult: 2
    decay_mult: 0
  }
  convolution_param {
    num_output: 384
    pad: 1
    kernel_size: 3
    group: 2
    weight_filler {
      type: "gaussian"
      std: 0.01
    }
    bias_filler {
      type: "constant"
      value: 1
    }
  }
}
layer {
  name: "relu4"
  type: "ReLU"
  bottom: "conv4"
  top: "conv4"
}
layer {
  name: "conv5"
  type: "Convolution"
  bottom: "conv4"
  top: "conv5"
  param {
    lr_mult: 1
    decay_mult: 1
  }
  param {
    lr_mult: 2
    decay_mult: 0
  }
  convolution_param {
    num_output: 256
    pad: 1
    kernel_size: 3
    group: 2
    weight_filler {
      type: "gaussian"
      std: 0.01
    }
    bias_filler {
      type: "constant"
      value: 1
    }
  }
}
layer {
  name: "relu5"
  type: "ReLU"
  bottom: "conv5"
  top: "conv5"
}
layer {
  name: "pool5"
  type: "Pooling"
  bottom: "conv5"
  top: "pool5"
  pooling_param {
    pool: MAX
    kernel_size: 3
    stride: 2
  }
}
layer {
  name: "fc6"
  type: "InnerProduct"
  bottom: "pool5"
  top: "fc6"
  param {
    lr_mult: 1
    decay_mult: 1
  }
  param {
    lr_mult: 2
    decay_mult: 0
  }
  inner_product_param {
    num_output: 4096
    weight_filler {
      type: "gaussian"
      std: 0.005
    }
    bias_filler {
      type: "constant"
      value: 1
    }
  }
}
layer {
  name: "relu6"
  type: "ReLU"
  bottom: "fc6"
  top: "fc6"
}
layer {
  name: "drop6"
  type: "Dropout"
  bottom: "fc6"
  top: "fc6"
  dropout_param {
    dropout_ratio: 0.5
  }
}
layer {
  name: "fc7"
  type: "InnerProduct"
  bottom: "fc6"
  top: "fc7"
  param {
    lr_mult: 1
    decay_mult: 1
  }
  param {
    lr_mult: 2
    decay_mult: 0
  }
  inner_product_param {
    num_output: 4096
    weight_filler {
      type: "gaussian"
      std: 0.005
    }
    bias_filler {
      type: "constant"
      value: 1
    }
  }
}
layer {
  name: "relu7"
  type: "ReLU"
  bottom: "fc7"
  top: "fc7"
}
layer {
  name: "drop7"
  type: "Dropout"
  bottom: "fc7"
  top: "fc7"
  dropout_param {
    dropout_ratio: 0.5
  }
}
layer {
  name: "fc8"
  type: "InnerProduct"
  bottom: "fc7"
  top: "fc8"
  param {
    lr_mult: 1
    decay_mult: 1
  }
  param {
    lr_mult: 2
    decay_mult: 0
  }
  inner_product_param {
    num_output: 2
    weight_filler {
      type: "gaussian"
      std: 0.01
    }
    bias_filler {
      type: "constant"
      value: 0
    }
  }
}
layer {
  name: "accuracy"
  type: "Accuracy"
  bottom: "fc8"
  bottom: "label"
  top: "accuracy"
  include {
    phase: TEST
  }
}
layer {
  name: "loss"
  type: "SoftmaxWithLoss"
  bottom: "fc8"
  bottom: "label"
  top: "loss"
}
I1216 05:00:14.181391  5773 layer_factory.hpp:77] Creating layer data
I1216 05:00:14.181435  5773 db_lmdb.cpp:35] Opened lmdb /home/nicholas/tesi/input/validation_lmdb
I1216 05:00:14.181443  5773 net.cpp:84] Creating Layer data
I1216 05:00:14.181447  5773 net.cpp:380] data -> data
I1216 05:00:14.181452  5773 net.cpp:380] data -> label
I1216 05:00:14.181455  5773 data_transformer.cpp:25] Loading mean file from: /home/nicholas/tesi/input/mean.binaryproto
I1216 05:00:14.183404  5773 data_layer.cpp:45] output data size: 10,3,277,277
I1216 05:00:14.195088  5773 net.cpp:122] Setting up data
I1216 05:00:14.195102  5773 net.cpp:129] Top shape: 10 3 277 277 (2301870)
I1216 05:00:14.195118  5773 net.cpp:129] Top shape: 10 (10)
I1216 05:00:14.195121  5773 net.cpp:137] Memory required for data: 9207520
I1216 05:00:14.195123  5773 layer_factory.hpp:77] Creating layer label_data_1_split
I1216 05:00:14.195142  5773 net.cpp:84] Creating Layer label_data_1_split
I1216 05:00:14.195143  5773 net.cpp:406] label_data_1_split <- label
I1216 05:00:14.195148  5773 net.cpp:380] label_data_1_split -> label_data_1_split_0
I1216 05:00:14.195154  5773 net.cpp:380] label_data_1_split -> label_data_1_split_1
I1216 05:00:14.195227  5773 net.cpp:122] Setting up label_data_1_split
I1216 05:00:14.195231  5773 net.cpp:129] Top shape: 10 (10)
I1216 05:00:14.195235  5773 net.cpp:129] Top shape: 10 (10)
I1216 05:00:14.195245  5773 net.cpp:137] Memory required for data: 9207600
I1216 05:00:14.195247  5773 layer_factory.hpp:77] Creating layer conv1
I1216 05:00:14.195255  5773 net.cpp:84] Creating Layer conv1
I1216 05:00:14.195255  5773 net.cpp:406] conv1 <- data
I1216 05:00:14.195268  5773 net.cpp:380] conv1 -> conv1
I1216 05:00:14.195845  5773 net.cpp:122] Setting up conv1
I1216 05:00:14.195850  5773 net.cpp:129] Top shape: 10 96 67 67 (4309440)
I1216 05:00:14.195853  5773 net.cpp:137] Memory required for data: 26445360
I1216 05:00:14.195868  5773 layer_factory.hpp:77] Creating layer relu1
I1216 05:00:14.195871  5773 net.cpp:84] Creating Layer relu1
I1216 05:00:14.195873  5773 net.cpp:406] relu1 <- conv1
I1216 05:00:14.195885  5773 net.cpp:367] relu1 -> conv1 (in-place)
I1216 05:00:14.195888  5773 net.cpp:122] Setting up relu1
I1216 05:00:14.195889  5773 net.cpp:129] Top shape: 10 96 67 67 (4309440)
I1216 05:00:14.195891  5773 net.cpp:137] Memory required for data: 43683120
I1216 05:00:14.195894  5773 layer_factory.hpp:77] Creating layer pool1
I1216 05:00:14.195896  5773 net.cpp:84] Creating Layer pool1
I1216 05:00:14.195901  5773 net.cpp:406] pool1 <- conv1
I1216 05:00:14.195904  5773 net.cpp:380] pool1 -> pool1
I1216 05:00:14.196636  5773 net.cpp:122] Setting up pool1
I1216 05:00:14.196640  5773 net.cpp:129] Top shape: 10 96 33 33 (1045440)
I1216 05:00:14.196642  5773 net.cpp:137] Memory required for data: 47864880
I1216 05:00:14.196653  5773 layer_factory.hpp:77] Creating layer norm1
I1216 05:00:14.196656  5773 net.cpp:84] Creating Layer norm1
I1216 05:00:14.196658  5773 net.cpp:406] norm1 <- pool1
I1216 05:00:14.196660  5773 net.cpp:380] norm1 -> norm1
I1216 05:00:14.196691  5773 net.cpp:122] Setting up norm1
I1216 05:00:14.196693  5773 net.cpp:129] Top shape: 10 96 33 33 (1045440)
I1216 05:00:14.196696  5773 net.cpp:137] Memory required for data: 52046640
I1216 05:00:14.196696  5773 layer_factory.hpp:77] Creating layer conv2
I1216 05:00:14.196714  5773 net.cpp:84] Creating Layer conv2
I1216 05:00:14.196717  5773 net.cpp:406] conv2 <- norm1
I1216 05:00:14.196718  5773 net.cpp:380] conv2 -> conv2
I1216 05:00:14.200816  5773 net.cpp:122] Setting up conv2
I1216 05:00:14.200837  5773 net.cpp:129] Top shape: 10 256 33 33 (2787840)
I1216 05:00:14.200853  5773 net.cpp:137] Memory required for data: 63198000
I1216 05:00:14.200860  5773 layer_factory.hpp:77] Creating layer relu2
I1216 05:00:14.200866  5773 net.cpp:84] Creating Layer relu2
I1216 05:00:14.200870  5773 net.cpp:406] relu2 <- conv2
I1216 05:00:14.200873  5773 net.cpp:367] relu2 -> conv2 (in-place)
I1216 05:00:14.200878  5773 net.cpp:122] Setting up relu2
I1216 05:00:14.200904  5773 net.cpp:129] Top shape: 10 256 33 33 (2787840)
I1216 05:00:14.200908  5773 net.cpp:137] Memory required for data: 74349360
I1216 05:00:14.200911  5773 layer_factory.hpp:77] Creating layer pool2
I1216 05:00:14.200915  5773 net.cpp:84] Creating Layer pool2
I1216 05:00:14.200917  5773 net.cpp:406] pool2 <- conv2
I1216 05:00:14.200919  5773 net.cpp:380] pool2 -> pool2
I1216 05:00:14.201692  5773 net.cpp:122] Setting up pool2
I1216 05:00:14.201696  5773 net.cpp:129] Top shape: 10 256 16 16 (655360)
I1216 05:00:14.201699  5773 net.cpp:137] Memory required for data: 76970800
I1216 05:00:14.201710  5773 layer_factory.hpp:77] Creating layer norm2
I1216 05:00:14.201714  5773 net.cpp:84] Creating Layer norm2
I1216 05:00:14.201716  5773 net.cpp:406] norm2 <- pool2
I1216 05:00:14.201719  5773 net.cpp:380] norm2 -> norm2
I1216 05:00:14.201740  5773 net.cpp:122] Setting up norm2
I1216 05:00:14.201742  5773 net.cpp:129] Top shape: 10 256 16 16 (655360)
I1216 05:00:14.201745  5773 net.cpp:137] Memory required for data: 79592240
I1216 05:00:14.201746  5773 layer_factory.hpp:77] Creating layer conv3
I1216 05:00:14.201751  5773 net.cpp:84] Creating Layer conv3
I1216 05:00:14.201753  5773 net.cpp:406] conv3 <- norm2
I1216 05:00:14.201756  5773 net.cpp:380] conv3 -> conv3
I1216 05:00:14.212224  5773 net.cpp:122] Setting up conv3
I1216 05:00:14.212237  5773 net.cpp:129] Top shape: 10 384 16 16 (983040)
I1216 05:00:14.212252  5773 net.cpp:137] Memory required for data: 83524400
I1216 05:00:14.212260  5773 layer_factory.hpp:77] Creating layer relu3
I1216 05:00:14.212265  5773 net.cpp:84] Creating Layer relu3
I1216 05:00:14.212267  5773 net.cpp:406] relu3 <- conv3
I1216 05:00:14.212270  5773 net.cpp:367] relu3 -> conv3 (in-place)
I1216 05:00:14.212285  5773 net.cpp:122] Setting up relu3
I1216 05:00:14.212285  5773 net.cpp:129] Top shape: 10 384 16 16 (983040)
I1216 05:00:14.212288  5773 net.cpp:137] Memory required for data: 87456560
I1216 05:00:14.212290  5773 layer_factory.hpp:77] Creating layer conv4
I1216 05:00:14.212296  5773 net.cpp:84] Creating Layer conv4
I1216 05:00:14.212296  5773 net.cpp:406] conv4 <- conv3
I1216 05:00:14.212299  5773 net.cpp:380] conv4 -> conv4
I1216 05:00:14.216451  5780 data_layer.cpp:73] Restarting data prefetching from start.
I1216 05:00:14.220495  5773 net.cpp:122] Setting up conv4
I1216 05:00:14.220508  5773 net.cpp:129] Top shape: 10 384 16 16 (983040)
I1216 05:00:14.220512  5773 net.cpp:137] Memory required for data: 91388720
I1216 05:00:14.220516  5773 layer_factory.hpp:77] Creating layer relu4
I1216 05:00:14.220521  5773 net.cpp:84] Creating Layer relu4
I1216 05:00:14.220533  5773 net.cpp:406] relu4 <- conv4
I1216 05:00:14.220536  5773 net.cpp:367] relu4 -> conv4 (in-place)
I1216 05:00:14.220541  5773 net.cpp:122] Setting up relu4
I1216 05:00:14.220542  5773 net.cpp:129] Top shape: 10 384 16 16 (983040)
I1216 05:00:14.220554  5773 net.cpp:137] Memory required for data: 95320880
I1216 05:00:14.220556  5773 layer_factory.hpp:77] Creating layer conv5
I1216 05:00:14.220561  5773 net.cpp:84] Creating Layer conv5
I1216 05:00:14.220562  5773 net.cpp:406] conv5 <- conv4
I1216 05:00:14.220564  5773 net.cpp:380] conv5 -> conv5
I1216 05:00:14.225781  5773 net.cpp:122] Setting up conv5
I1216 05:00:14.225788  5773 net.cpp:129] Top shape: 10 256 16 16 (655360)
I1216 05:00:14.225791  5773 net.cpp:137] Memory required for data: 97942320
I1216 05:00:14.225805  5773 layer_factory.hpp:77] Creating layer relu5
I1216 05:00:14.225809  5773 net.cpp:84] Creating Layer relu5
I1216 05:00:14.225811  5773 net.cpp:406] relu5 <- conv5
I1216 05:00:14.225823  5773 net.cpp:367] relu5 -> conv5 (in-place)
I1216 05:00:14.225826  5773 net.cpp:122] Setting up relu5
I1216 05:00:14.225828  5773 net.cpp:129] Top shape: 10 256 16 16 (655360)
I1216 05:00:14.225831  5773 net.cpp:137] Memory required for data: 100563760
I1216 05:00:14.225832  5773 layer_factory.hpp:77] Creating layer pool5
I1216 05:00:14.225837  5773 net.cpp:84] Creating Layer pool5
I1216 05:00:14.225839  5773 net.cpp:406] pool5 <- conv5
I1216 05:00:14.225842  5773 net.cpp:380] pool5 -> pool5
I1216 05:00:14.225893  5773 net.cpp:122] Setting up pool5
I1216 05:00:14.225894  5773 net.cpp:129] Top shape: 10 256 8 8 (163840)
I1216 05:00:14.225908  5773 net.cpp:137] Memory required for data: 101219120
I1216 05:00:14.225908  5773 layer_factory.hpp:77] Creating layer fc6
I1216 05:00:14.225913  5773 net.cpp:84] Creating Layer fc6
I1216 05:00:14.225914  5773 net.cpp:406] fc6 <- pool5
I1216 05:00:14.225927  5773 net.cpp:380] fc6 -> fc6
I1216 05:00:14.966567  5773 net.cpp:122] Setting up fc6
I1216 05:00:14.966586  5773 net.cpp:129] Top shape: 10 4096 (40960)
I1216 05:00:14.966590  5773 net.cpp:137] Memory required for data: 101382960
I1216 05:00:14.966594  5773 layer_factory.hpp:77] Creating layer relu6
I1216 05:00:14.966600  5773 net.cpp:84] Creating Layer relu6
I1216 05:00:14.966603  5773 net.cpp:406] relu6 <- fc6
I1216 05:00:14.966606  5773 net.cpp:367] relu6 -> fc6 (in-place)
I1216 05:00:14.966610  5773 net.cpp:122] Setting up relu6
I1216 05:00:14.966621  5773 net.cpp:129] Top shape: 10 4096 (40960)
I1216 05:00:14.966624  5773 net.cpp:137] Memory required for data: 101546800
I1216 05:00:14.966625  5773 layer_factory.hpp:77] Creating layer drop6
I1216 05:00:14.966629  5773 net.cpp:84] Creating Layer drop6
I1216 05:00:14.966629  5773 net.cpp:406] drop6 <- fc6
I1216 05:00:14.966631  5773 net.cpp:367] drop6 -> fc6 (in-place)
I1216 05:00:14.966658  5773 net.cpp:122] Setting up drop6
I1216 05:00:14.966662  5773 net.cpp:129] Top shape: 10 4096 (40960)
I1216 05:00:14.966665  5773 net.cpp:137] Memory required for data: 101710640
I1216 05:00:14.966665  5773 layer_factory.hpp:77] Creating layer fc7
I1216 05:00:14.966670  5773 net.cpp:84] Creating Layer fc7
I1216 05:00:14.966671  5773 net.cpp:406] fc7 <- fc6
I1216 05:00:14.966675  5773 net.cpp:380] fc7 -> fc7
I1216 05:00:15.153259  5773 net.cpp:122] Setting up fc7
I1216 05:00:15.153272  5773 net.cpp:129] Top shape: 10 4096 (40960)
I1216 05:00:15.153276  5773 net.cpp:137] Memory required for data: 101874480
I1216 05:00:15.153280  5773 layer_factory.hpp:77] Creating layer relu7
I1216 05:00:15.153301  5773 net.cpp:84] Creating Layer relu7
I1216 05:00:15.153303  5773 net.cpp:406] relu7 <- fc7
I1216 05:00:15.153307  5773 net.cpp:367] relu7 -> fc7 (in-place)
I1216 05:00:15.153322  5773 net.cpp:122] Setting up relu7
I1216 05:00:15.153323  5773 net.cpp:129] Top shape: 10 4096 (40960)
I1216 05:00:15.153326  5773 net.cpp:137] Memory required for data: 102038320
I1216 05:00:15.153326  5773 layer_factory.hpp:77] Creating layer drop7
I1216 05:00:15.153329  5773 net.cpp:84] Creating Layer drop7
I1216 05:00:15.153331  5773 net.cpp:406] drop7 <- fc7
I1216 05:00:15.153333  5773 net.cpp:367] drop7 -> fc7 (in-place)
I1216 05:00:15.153350  5773 net.cpp:122] Setting up drop7
I1216 05:00:15.153352  5773 net.cpp:129] Top shape: 10 4096 (40960)
I1216 05:00:15.153354  5773 net.cpp:137] Memory required for data: 102202160
I1216 05:00:15.153357  5773 layer_factory.hpp:77] Creating layer fc8
I1216 05:00:15.153360  5773 net.cpp:84] Creating Layer fc8
I1216 05:00:15.153362  5773 net.cpp:406] fc8 <- fc7
I1216 05:00:15.153365  5773 net.cpp:380] fc8 -> fc8
I1216 05:00:15.153555  5773 net.cpp:122] Setting up fc8
I1216 05:00:15.153559  5773 net.cpp:129] Top shape: 10 2 (20)
I1216 05:00:15.153561  5773 net.cpp:137] Memory required for data: 102202240
I1216 05:00:15.153564  5773 layer_factory.hpp:77] Creating layer fc8_fc8_0_split
I1216 05:00:15.153578  5773 net.cpp:84] Creating Layer fc8_fc8_0_split
I1216 05:00:15.153578  5773 net.cpp:406] fc8_fc8_0_split <- fc8
I1216 05:00:15.153581  5773 net.cpp:380] fc8_fc8_0_split -> fc8_fc8_0_split_0
I1216 05:00:15.153585  5773 net.cpp:380] fc8_fc8_0_split -> fc8_fc8_0_split_1
I1216 05:00:15.153626  5773 net.cpp:122] Setting up fc8_fc8_0_split
I1216 05:00:15.153630  5773 net.cpp:129] Top shape: 10 2 (20)
I1216 05:00:15.153631  5773 net.cpp:129] Top shape: 10 2 (20)
I1216 05:00:15.153633  5773 net.cpp:137] Memory required for data: 102202400
I1216 05:00:15.153645  5773 layer_factory.hpp:77] Creating layer accuracy
I1216 05:00:15.153648  5773 net.cpp:84] Creating Layer accuracy
I1216 05:00:15.153662  5773 net.cpp:406] accuracy <- fc8_fc8_0_split_0
I1216 05:00:15.153674  5773 net.cpp:406] accuracy <- label_data_1_split_0
I1216 05:00:15.153677  5773 net.cpp:380] accuracy -> accuracy
…
